Model Summary:
Model: "sequential_1"
┏━━━━━━━━━━━━━━━━━━━━━━━━━━━━━━━━━━━━━━┳━━━━━━━━━━━━━━━━━━━━━━━━━━━━━┳━━━━━━━━━━━━━━━━━┓
┃ Layer (type)                         ┃ Output Shape                ┃         Param # ┃
┡━━━━━━━━━━━━━━━━━━━━━━━━━━━━━━━━━━━━━━╇━━━━━━━━━━━━━━━━━━━━━━━━━━━━━╇━━━━━━━━━━━━━━━━━┩
│ LSTM_Embed (Embedding)               │ (None, 641, 128)            │             768 │
├──────────────────────────────────────┼─────────────────────────────┼─────────────────┤
│ LSTM_1 (LSTM)                        │ (None, 641, 64)             │          49,408 │
├──────────────────────────────────────┼─────────────────────────────┼─────────────────┤
│ LSTM_dropout (Dropout)               │ (None, 641, 64)             │               0 │
├──────────────────────────────────────┼─────────────────────────────┼─────────────────┤
│ LSTM_2 (LSTM)                        │ (None, 64)                  │          33,024 │
├──────────────────────────────────────┼─────────────────────────────┼─────────────────┤
│ LSTM_dropout_2 (Dropout)             │ (None, 64)                  │               0 │
├──────────────────────────────────────┼─────────────────────────────┼─────────────────┤
│ LSTM_Dense (Dense)                   │ (None, 4)                   │             260 │
└──────────────────────────────────────┴─────────────────────────────┴─────────────────┘
 Total params: 250,382 (978.06 KB)
 Trainable params: 83,460 (326.02 KB)
 Non-trainable params: 0 (0.00 B)
 Optimizer params: 166,922 (652.04 KB)


Best Hyperparameters:
embeddim: 128
units: 64
dropout: 0.5
learning_rate: 0.0001
tuner/epochs: 5
tuner/initial_epoch: 2
tuner/bracket: 1
tuner/round: 1
tuner/trial_id: 0001
…
