Model Summary:
Model: "model_conv1D"
┏━━━━━━━━━━━━━━━━━━━━━━━━━━━━━━━━━━━━━━┳━━━━━━━━━━━━━━━━━━━━━━━━━━━━━┳━━━━━━━━━━━━━━━━━┓
┃ Layer (type)                         ┃ Output Shape                ┃         Param # ┃
┡━━━━━━━━━━━━━━━━━━━━━━━━━━━━━━━━━━━━━━╇━━━━━━━━━━━━━━━━━━━━━━━━━━━━━╇━━━━━━━━━━━━━━━━━┩
│ CNN_Conv1D_1 (Conv1D)                │ (None, 635, 64)             │             512 │
├──────────────────────────────────────┼─────────────────────────────┼─────────────────┤
│ CNN_dropout (Dropout)                │ (None, 635, 64)             │               0 │
├──────────────────────────────────────┼─────────────────────────────┼─────────────────┤
│ CNN_Conv1D_2 (Conv1D)                │ (None, 633, 32)             │           6,176 │
├──────────────────────────────────────┼─────────────────────────────┼─────────────────┤
│ CNN_Conv1D_3 (Conv1D)                │ (None, 632, 16)             │           1,040 │
├──────────────────────────────────────┼─────────────────────────────┼─────────────────┤
│ CNN_dropout_2 (Dropout)              │ (None, 632, 16)             │               0 │
├──────────────────────────────────────┼─────────────────────────────┼─────────────────┤
│ CNN_MaxPooling1D (MaxPooling1D)      │ (None, 316, 16)             │               0 │
├──────────────────────────────────────┼─────────────────────────────┼─────────────────┤
│ CNN_Flatten (Flatten)                │ (None, 5056)                │               0 │
├──────────────────────────────────────┼─────────────────────────────┼─────────────────┤
│ CNN_Dense_1 (Dense)                  │ (None, 32)                  │         161,824 │
├──────────────────────────────────────┼─────────────────────────────┼─────────────────┤
│ CNN_Dense_2 (Dense)                  │ (None, 1)                   │              33 │
├──────────────────────────────────────┼─────────────────────────────┼─────────────────┤
│ CNN_Dense_3 (Dense)                  │ (None, 4)                   │               8 │
└──────────────────────────────────────┴─────────────────────────────┴─────────────────┘
 Total params: 508,781 (1.94 MB)
 Trainable params: 169,593 (662.47 KB)
 Non-trainable params: 0 (0.00 B)
 Optimizer params: 339,188 (1.29 MB)


Best Hyperparameters:
learning_rate: 0.001
filters: 64
dropout: 0.25
tuner/epochs: 2
tuner/initial_epoch: 0
tuner/bracket: 2
tuner/round: 0

Best Epoch: 6

Epoch Metrics:
…
