Model Summary:
Model: "sequential"
┏━━━━━━━━━━━━━━━━━━━━━━━━━━━━━━━━━━━━━━┳━━━━━━━━━━━━━━━━━━━━━━━━━━━━━┳━━━━━━━━━━━━━━━━━┓
┃ Layer (type)                         ┃ Output Shape                ┃         Param # ┃
┡━━━━━━━━━━━━━━━━━━━━━━━━━━━━━━━━━━━━━━╇━━━━━━━━━━━━━━━━━━━━━━━━━━━━━╇━━━━━━━━━━━━━━━━━┩
│ LSTM_Embed (Embedding)               │ (None, 651, 128)            │             768 │
├──────────────────────────────────────┼─────────────────────────────┼─────────────────┤
│ LSTM_1 (LSTM)                        │ (None, 651, 64)             │          49,408 │
├──────────────────────────────────────┼─────────────────────────────┼─────────────────┤
│ LSTM_dropout (Dropout)               │ (None, 651, 64)             │               0 │
├──────────────────────────────────────┼─────────────────────────────┼─────────────────┤
│ LSTM_2 (LSTM)                        │ (None, 64)                  │          33,024 │
├──────────────────────────────────────┼─────────────────────────────┼─────────────────┤
│ LSTM_dropout_2 (Dropout)             │ (None, 64)                  │               0 │
├──────────────────────────────────────┼─────────────────────────────┼─────────────────┤
│ LSTM_Dense (Dense)                   │ (None, 6)                   │             390 │
└──────────────────────────────────────┴─────────────────────────────┴─────────────────┘
 Total params: 250,772 (979.58 KB)
 Trainable params: 83,590 (326.52 KB)
 Non-trainable params: 0 (0.00 B)
 Optimizer params: 167,182 (653.06 KB)


Best Hyperparameters:
embeddim: 128
units: 64
dropout: 0.25
learning_rate: 0.0001
tuner/epochs: 5
tuner/initial_epoch: 2
tuner/bracket: 1
tuner/round: 1
tuner/trial_id: 0004
…
