Model Summary:
Model: "sequential_1"
┏━━━━━━━━━━━━━━━━━━━━━━━━━━━━━━━━━━━━━━┳━━━━━━━━━━━━━━━━━━━━━━━━━━━━━┳━━━━━━━━━━━━━━━━━┓
┃ Layer (type)                         ┃ Output Shape                ┃         Param # ┃
┡━━━━━━━━━━━━━━━━━━━━━━━━━━━━━━━━━━━━━━╇━━━━━━━━━━━━━━━━━━━━━━━━━━━━━╇━━━━━━━━━━━━━━━━━┩
│ LSTM_Embed (Embedding)               │ (16, 585, 4)                │              64 │
├──────────────────────────────────────┼─────────────────────────────┼─────────────────┤
│ LSTM_1 (LSTM)                        │ (16, 585, 32)               │           4,736 │
├──────────────────────────────────────┼─────────────────────────────┼─────────────────┤
│ LSTM_dropout (Dropout)               │ (16, 585, 32)               │               0 │
├──────────────────────────────────────┼─────────────────────────────┼─────────────────┤
│ LSTM_2 (LSTM)                        │ (16, 32)                    │           8,320 │
├──────────────────────────────────────┼─────────────────────────────┼─────────────────┤
│ LSTM_dropout_2 (Dropout)             │ (16, 32)                    │               0 │
├──────────────────────────────────────┼─────────────────────────────┼─────────────────┤
│ LSTM_Dense (Dense)                   │ (16, 4)                     │             132 │
└──────────────────────────────────────┴─────────────────────────────┴─────────────────┘
 Total params: 39,758 (155.31 KB)
 Trainable params: 13,252 (51.77 KB)
 Non-trainable params: 0 (0.00 B)
 Optimizer params: 26,506 (103.54 KB)


Best Hyperparameters:
embeddim: 4
units: 32
dropout: 0.5
learning_rate: 0.001
tuner/epochs: 10
tuner/initial_epoch: 4
tuner/bracket: 2
tuner/round: 2
tuner/trial_id: 0012
…
