Model Summary:
Model: "model_conv1D"
┏━━━━━━━━━━━━━━━━━━━━━━━━━━━━━━━━━━━━━━┳━━━━━━━━━━━━━━━━━━━━━━━━━━━━━┳━━━━━━━━━━━━━━━━━┓
┃ Layer (type)                         ┃ Output Shape                ┃         Param # ┃
┡━━━━━━━━━━━━━━━━━━━━━━━━━━━━━━━━━━━━━━╇━━━━━━━━━━━━━━━━━━━━━━━━━━━━━╇━━━━━━━━━━━━━━━━━┩
│ CNN_Conv1D_1 (Conv1D)                │ (None, 579, 32)             │             256 │
├──────────────────────────────────────┼─────────────────────────────┼─────────────────┤
│ CNN_dropout (Dropout)                │ (None, 579, 32)             │               0 │
├──────────────────────────────────────┼─────────────────────────────┼─────────────────┤
│ CNN_Conv1D_2 (Conv1D)                │ (None, 577, 16)             │           1,552 │
├──────────────────────────────────────┼─────────────────────────────┼─────────────────┤
│ CNN_Conv1D_3 (Conv1D)                │ (None, 576, 8)              │             264 │
├──────────────────────────────────────┼─────────────────────────────┼─────────────────┤
│ CNN_dropout_2 (Dropout)              │ (None, 576, 8)              │               0 │
├──────────────────────────────────────┼─────────────────────────────┼─────────────────┤
│ CNN_MaxPooling1D (MaxPooling1D)      │ (None, 288, 8)              │               0 │
├──────────────────────────────────────┼─────────────────────────────┼─────────────────┤
│ CNN_Flatten (Flatten)                │ (None, 2304)                │               0 │
├──────────────────────────────────────┼─────────────────────────────┼─────────────────┤
│ CNN_Dense_1 (Dense)                  │ (None, 16)                  │          36,880 │
├──────────────────────────────────────┼─────────────────────────────┼─────────────────┤
│ CNN_Dense_2 (Dense)                  │ (None, 1)                   │              17 │
├──────────────────────────────────────┼─────────────────────────────┼─────────────────┤
│ CNN_Dense_3 (Dense)                  │ (None, 4)                   │               8 │
└──────────────────────────────────────┴─────────────────────────────┴─────────────────┘
 Total params: 116,933 (456.77 KB)
 Trainable params: 38,977 (152.25 KB)
 Non-trainable params: 0 (0.00 B)
 Optimizer params: 77,956 (304.52 KB)


Best Hyperparameters:
learning_rate: 0.001
filters: 32
dropout: 0.25
tuner/epochs: 2
tuner/initial_epoch: 0
tuner/bracket: 2
tuner/round: 0

Best Epoch: 8

Epoch Metrics:
…
