Model Summary:
Model: "model_conv1D"
┏━━━━━━━━━━━━━━━━━━━━━━━━━━━━━━━━━━━━━━┳━━━━━━━━━━━━━━━━━━━━━━━━━━━━━┳━━━━━━━━━━━━━━━━━┓
┃ Layer (type)                         ┃ Output Shape                ┃         Param # ┃
┡━━━━━━━━━━━━━━━━━━━━━━━━━━━━━━━━━━━━━━╇━━━━━━━━━━━━━━━━━━━━━━━━━━━━━╇━━━━━━━━━━━━━━━━━┩
│ CNN_Conv1D_1 (Conv1D)                │ (None, 538, 64)             │             512 │
├──────────────────────────────────────┼─────────────────────────────┼─────────────────┤
│ CNN_dropout (Dropout)                │ (None, 538, 64)             │               0 │
├──────────────────────────────────────┼─────────────────────────────┼─────────────────┤
│ CNN_Conv1D_2 (Conv1D)                │ (None, 536, 32)             │           6,176 │
├──────────────────────────────────────┼─────────────────────────────┼─────────────────┤
│ CNN_Conv1D_3 (Conv1D)                │ (None, 535, 16)             │           1,040 │
├──────────────────────────────────────┼─────────────────────────────┼─────────────────┤
│ CNN_dropout_2 (Dropout)              │ (None, 535, 16)             │               0 │
├──────────────────────────────────────┼─────────────────────────────┼─────────────────┤
│ CNN_MaxPooling1D (MaxPooling1D)      │ (None, 267, 16)             │               0 │
├──────────────────────────────────────┼─────────────────────────────┼─────────────────┤
│ CNN_Flatten (Flatten)                │ (None, 4272)                │               0 │
├──────────────────────────────────────┼─────────────────────────────┼─────────────────┤
│ CNN_Dense_1 (Dense)                  │ (None, 32)                  │         136,736 │
├──────────────────────────────────────┼─────────────────────────────┼─────────────────┤
│ CNN_Dense_2 (Dense)                  │ (None, 1)                   │              33 │
├──────────────────────────────────────┼─────────────────────────────┼─────────────────┤
│ CNN_Dense_3 (Dense)                  │ (None, 5)                   │              10 │
└──────────────────────────────────────┴─────────────────────────────┴─────────────────┘
 Total params: 433,523 (1.65 MB)
 Trainable params: 144,507 (564.48 KB)
 Non-trainable params: 0 (0.00 B)
 Optimizer params: 289,016 (1.10 MB)


Best Hyperparameters:
learning_rate: 0.001
filters: 64
dropout: 0.25
tuner/epochs: 5
tuner/initial_epoch: 2
tuner/bracket: 1
tuner/round: 1
tuner/trial_id: 0004

Best Epoch: 1
…
