Model Summary:
Model: "sequential_1"
┏━━━━━━━━━━━━━━━━━━━━━━━━━━━━━━━━━━━━━━┳━━━━━━━━━━━━━━━━━━━━━━━━━━━━━┳━━━━━━━━━━━━━━━━━┓
┃ Layer (type)                         ┃ Output Shape                ┃         Param # ┃
┡━━━━━━━━━━━━━━━━━━━━━━━━━━━━━━━━━━━━━━╇━━━━━━━━━━━━━━━━━━━━━━━━━━━━━╇━━━━━━━━━━━━━━━━━┩
│ LSTM_Embed (Embedding)               │ (None, 563, 128)            │             768 │
├──────────────────────────────────────┼─────────────────────────────┼─────────────────┤
│ LSTM_1 (LSTM)                        │ (None, 563, 64)             │          49,408 │
├──────────────────────────────────────┼─────────────────────────────┼─────────────────┤
│ LSTM_dropout (Dropout)               │ (None, 563, 64)             │               0 │
├──────────────────────────────────────┼─────────────────────────────┼─────────────────┤
│ LSTM_2 (LSTM)                        │ (None, 64)                  │          33,024 │
├──────────────────────────────────────┼─────────────────────────────┼─────────────────┤
│ LSTM_dropout_2 (Dropout)             │ (None, 64)                  │               0 │
├──────────────────────────────────────┼─────────────────────────────┼─────────────────┤
│ LSTM_Dense (Dense)                   │ (None, 5)                   │             325 │
└──────────────────────────────────────┴─────────────────────────────┴─────────────────┘
 Total params: 250,577 (978.82 KB)
 Trainable params: 83,525 (326.27 KB)
 Non-trainable params: 0 (0.00 B)
 Optimizer params: 167,052 (652.55 KB)


Best Hyperparameters:
embeddim: 128
units: 64
dropout: 0.25
learning_rate: 0.001
tuner/epochs: 5
tuner/initial_epoch: 2
tuner/bracket: 1
tuner/round: 1
tuner/trial_id: 0002
…
