Model Summary:
Model: "sequential_1"
┏━━━━━━━━━━━━━━━━━━━━━━━━━━━━━━━━━━━━━━┳━━━━━━━━━━━━━━━━━━━━━━━━━━━━━┳━━━━━━━━━━━━━━━━━┓
┃ Layer (type)                         ┃ Output Shape                ┃         Param # ┃
┡━━━━━━━━━━━━━━━━━━━━━━━━━━━━━━━━━━━━━━╇━━━━━━━━━━━━━━━━━━━━━━━━━━━━━╇━━━━━━━━━━━━━━━━━┩
│ LSTM_Embed (Embedding)               │ (None, 585, 128)            │           2,048 │
├──────────────────────────────────────┼─────────────────────────────┼─────────────────┤
│ LSTM_1 (LSTM)                        │ (None, 585, 64)             │          49,408 │
├──────────────────────────────────────┼─────────────────────────────┼─────────────────┤
│ LSTM_dropout (Dropout)               │ (None, 585, 64)             │               0 │
├──────────────────────────────────────┼─────────────────────────────┼─────────────────┤
│ LSTM_2 (LSTM)                        │ (None, 64)                  │          33,024 │
├──────────────────────────────────────┼─────────────────────────────┼─────────────────┤
│ LSTM_dropout_2 (Dropout)             │ (None, 64)                  │               0 │
├──────────────────────────────────────┼─────────────────────────────┼─────────────────┤
│ LSTM_Dense (Dense)                   │ (None, 4)                   │             260 │
└──────────────────────────────────────┴─────────────────────────────┴─────────────────┘
 Total params: 254,222 (993.06 KB)
 Trainable params: 84,740 (331.02 KB)
 Non-trainable params: 0 (0.00 B)
 Optimizer params: 169,482 (662.04 KB)


Best Hyperparameters:
embeddim: 128
units: 64
dropout: 0.25
learning_rate: 0.0001
tuner/epochs: 2
tuner/initial_epoch: 0
tuner/bracket: 2
tuner/round: 0

Best Epoch: 10
…
